Model: "model"
_________________________________________________________________
 Layer (type)                Output Shape              Param #   
=================================================================
 input_1 (InputLayer)        [(None, 49, 10, 1)]       0         
                                                                 
 conv2d (Conv2D)             (None, 25, 5, 64)         2624      
                                                                 
 batch_normalization (Batch  (None, 25, 5, 64)         256       
 Normalization)                                                  
                                                                 
 activation (Activation)     (None, 25, 5, 64)         0         
                                                                 
 dropout (Dropout)           (None, 25, 5, 64)         0         
                                                                 
 depthwise_conv2d (Depthwis  (None, 25, 5, 64)         640       
 eConv2D)                                                        
                                                                 
 batch_normalization_1 (Bat  (None, 25, 5, 64)         256       
 chNormalization)                                                
                                                                 
 activation_1 (Activation)   (None, 25, 5, 64)         0         
                                                                 
 conv2d_1 (Conv2D)           (None, 25, 5, 64)         4160      
                                                                 
 batch_normalization_2 (Bat  (None, 25, 5, 64)         256       
 chNormalization)                                                
                                                                 
 activation_2 (Activation)   (None, 25, 5, 64)         0         
                                                                 
 depthwise_conv2d_1 (Depthw  (None, 25, 5, 64)         640       
 iseConv2D)                                                      
                                                                 
 batch_normalization_3 (Bat  (None, 25, 5, 64)         256       
 chNormalization)                                                
                                                                 
 activation_3 (Activation)   (None, 25, 5, 64)         0         
                                                                 
 conv2d_2 (Conv2D)           (None, 25, 5, 64)         4160      
                                                                 
 batch_normalization_4 (Bat  (None, 25, 5, 64)         256       
 chNormalization)                                                
                                                                 
 activation_4 (Activation)   (None, 25, 5, 64)         0         
                                                                 
 depthwise_conv2d_2 (Depthw  (None, 25, 5, 64)         640       
 iseConv2D)                                                      
                                                                 
 batch_normalization_5 (Bat  (None, 25, 5, 64)         256       
 chNormalization)                                                
                                                                 
 activation_5 (Activation)   (None, 25, 5, 64)         0         
                                                                 
 conv2d_3 (Conv2D)           (None, 25, 5, 64)         4160      
                                                                 
 batch_normalization_6 (Bat  (None, 25, 5, 64)         256       
 chNormalization)                                                
                                                                 
 activation_6 (Activation)   (None, 25, 5, 64)         0         
                                                                 
 depthwise_conv2d_3 (Depthw  (None, 25, 5, 64)         640       
 iseConv2D)                                                      
                                                                 
 batch_normalization_7 (Bat  (None, 25, 5, 64)         256       
 chNormalization)                                                
                                                                 
 activation_7 (Activation)   (None, 25, 5, 64)         0         
                                                                 
 conv2d_4 (Conv2D)           (None, 25, 5, 64)         4160      
                                                                 
 batch_normalization_8 (Bat  (None, 25, 5, 64)         256       
 chNormalization)                                                
                                                                 
 activation_8 (Activation)   (None, 25, 5, 64)         0         
                                                                 
 dropout_1 (Dropout)         (None, 25, 5, 64)         0         
                                                                 
 average_pooling2d (Average  (None, 1, 1, 64)          0         
 Pooling2D)                                                      
                                                                 
 flatten (Flatten)           (None, 64)                0         
                                                                 
 dense (Dense)               (None, 12)                780       
                                                                 
=================================================================
Total params: 24908 (97.30 KB)
Trainable params: 23756 (92.80 KB)
Non-trainable params: 1152 (4.50 KB)
_________________________________________________________________
Layer: input_1
Layer: conv2d
  Weight Matrix 1:
[[[[-0.01208129 -0.0800905   0.06934204 ... -0.00427414  0.14257787
…
